Chatbot/klapa_chatbot_model.tflite (tflite, 168096 bytes, 6 tensors)

sequential/dense_1/BiasAdd/ReadVariableOp f4 [64]
000000 28 2a 3f bc 8d 27 fd 3c f2 94 a5 3d 49 de c8 3d
       -0.011667766 0.030902648 0.0808505 0.098080225
000010 be 96 87 3d d2 c2 ba 3d b1 cf d2 3d 12 a8 03 3f
       0.06620549 0.0911919 0.1029352 0.5142833
000020 70 5c 97 3e 63 32 14 3e 98 f0 95 3e 4a bf 41 3e
       0.29562712 0.14472346 0.2928512 0.18920627
000030 0f 71 07 3f cb 21 e9 3e 3b c7 17 bd 56 e4 a1 3e
       0.5290689 0.45533594 -0.037055235 0.3161952
000040 b3 ec 6c 3e 66 9f 9c bc dc 58 50 3e 3b 93 95 3e
       0.23137169 -0.019118976 0.20346397 0.2921389
000050 c0 0f 45 bd c4 bb 3a bd 89 bd a0 3e 78 c7 69 3d
       -0.048110723 -0.045589224 0.31394604 0.057074994
000060 e6 c5 74 bd 0c e6 22 3b 77 c1 c2 3e e7 a7 a1 bd
       -0.059759043 0.0024856357 0.38038227 -0.07893353
000070 bb 3a 60 3e d6 c8 71 3e e3 ac f3 3c 7c 61 96 3e
       0.21897404 0.23611769 0.029745525 0.2937125
000080 5b 77 1b bd ec 15 4a 3e 34 5a 88 3e 92 0c cb 3e
       -0.037955623 0.19734925 0.2663132 0.39658028
000090 ff 6f 41 bd ba 1d 14 be 53 1d a1 3e 5a 03 3f 3e
       -0.04722595 -0.14464465 0.31467685 0.18653622
0000a0 58 1a cb 3e 4a 04 8f 3e a6 12 26 3e b3 9c 5d 3e
       0.39668536 0.2793296 0.16218051 0.21641807
0000b0 cb d7 04 3f 70 1f ab 3d 59 48 93 3e 4f 2f 03 3e
       0.51891774 0.083556056 0.28766134 0.12811016
0000c0 d2 ea b7 3e b2 73 3f bd 96 4d 43 3e e7 81 9e 3d
       0.3592134 -0.046741195 0.19072565 0.07739621
0000d0 7a ff 2a 3e 40 9a 66 3e e0 c6 b6 3d 81 7c c0 bd
       0.16699019 0.22519779 0.08924651 -0.09398747
0000e0 b3 84 5b 3e 5f bc ab 3d 08 0e 30 3e 1f 7f c3 3d
       0.2143734 0.08385538 0.17192852 0.09545731
0000f0 65 59 a7 3d 3b 98 cc 3e 09 5c b4 3e 47 c9 a4 3d
       0.081713475 0.39959893 0.35226467 0.08046203

sequential/dense_2/BiasAdd/ReadVariableOp f4 [29]
000000 7f 4a 7a 3e 2f b0 08 3f be 56 87 3f 14 5a cc be
       0.2444248 0.53393835 1.0573347 -0.39912474
000010 01 b3 9d be 1e d0 0c 3e 7f f9 64 3c cf d8 04 3f
       -0.30800632 0.13751265 0.0139755 0.51893324
000020 26 ad 7e be 90 7e b3 3e b2 fc 27 be 0b 0b e9 3d
       -0.24870738 0.35057497 -0.1640499 0.113790594
000030 9d 58 09 bf 53 8a 0f 3c 5c be 86 bd 5e 9c b0 be
       -0.5365084 0.008761006 -0.06579277 -0.344943
000040 5f 18 d8 3d eb 25 1e be ed 75 74 be 05 2a 11 bd
       0.105515234 -0.15444152 -0.2387311 -0.035440464
000050 1f da e6 3e 44 75 a4 bb f4 cd 33 3e f8 b0 a6 3b
       0.45088288 -0.005018862 0.17559034 0.0050870143
000060 96 ab 65 3d 5c ad 41 bd e2 ef 0a bd 9f d7 0d bf
       0.05607184 -0.04728447 -0.033920176 -0.55407137
000070 c6 e6 22 bf
       -0.6363338

sequential/dense/BiasAdd/ReadVariableOp f4 [128]
000000 82 fa 65 3d d0 28 ea 3d 3a 14 5e 3c 14 6b 6e 3c
       0.056147106 0.114335656 0.013554627 0.014551897
000010 e9 19 38 3e 5a 33 93 3d a3 38 84 3c 27 bc 51 3c
       0.17978634 0.07187529 0.016140288 0.012801207
000020 4a 2c 9d 3d 47 f5 83 3d 5c f1 24 3c b0 ef 5a 3e
       0.07674463 0.06443267 0.01006731 0.21380496
000030 ce 8c c4 3d 39 80 73 3d 8b c8 84 3d f8 64 c2 3d
       0.09597169 0.059448455 0.06483563 0.094919145
000040 cf 52 b0 3d 88 e9 ad 3d e6 be 0a 3d 12 d0 6d bc
       0.086095445 0.08491808 0.03387346 -0.01451494
000050 48 df cf 3d 2a a9 86 3d 29 26 f3 3d ae 92 e0 3b
       0.101500094 0.06575234 0.11872513 0.006853423
000060 8c aa 2a 3d 01 9c 4c 3d a6 d1 40 bd ca 64 4b 3e
       0.041666552 0.049953464 -0.047074936 0.19862667
000070 13 5b ba 3d 8c 06 47 3d a4 6d 94 3d 4e f2 67 3d
       0.09099402 0.048590228 0.07247475 0.056627564
000080 46 5a 22 3e d3 69 9e 3d e8 ad d0 3d 88 ec 1d 3e
       0.15854749 0.07735028 0.1018942 0.15422261
000090 53 06 18 3e 03 ab ee 3d 19 d0 2f 3e ae 4e 9a 3c
       0.14846162 0.11653712 0.17169227 0.018836346
0000a0 dd ce 19 3e cb 74 0a 3e a4 f5 dc 3d 13 a3 be 3d
       0.15020318 0.13521115 0.1078904 0.09308448
0000b0 96 cf 72 3c d3 72 95 3d 50 96 b7 3d 26 0f 01 3e
       0.01482 0.072972916 0.08964217 0.12603435
0000c0 e4 83 05 3d f3 6d 2a 3e 81 eb 37 3e 52 42 b5 3d
       0.032596484 0.16643505 0.17960931 0.0885054
0000d0 5c 3f ca 3d d6 c7 ab 3d 00 91 65 3d 5a 43 d6 3b
       0.09875366 0.08387725 0.056046486 0.0065387907
0000e0 99 6a 56 3d 7d 99 86 3c 03 6e 1c 3d 27 6a bf 3d
       0.052347753 0.01643061 0.038190853 0.09346419
0000f0 37 51 d2 3d 4f f0 59 3d f9 c5 d2 3c cf 06 a8 3d
       0.10269397 0.05320769 0.025729166 0.08204424
000100 f9 b7 ae 3c 91 2f d9 3d 5a 73 2e 3d a5 01 78 3d
       0.02132796 0.10604776 0.042590477 0.060548443
000110 64 d9 fc 3d c3 8d 79 3d db ec 00 3e e3 80 8c 3a
       0.123461515 0.06092621 0.12590353 0.0010719564
000120 60 9b d0 3c 92 88 5b 3d e3 25 71 bc fe 42 f9 3d
       0.025464714 0.05359704 -0.014718506 0.12170981
000130 b3 1d 85 3d 2b 59 12 3e 64 7f c1 3d f1 94 aa 3d
       0.06499805 0.14291827 0.09448126 0.083291896
000140 74 fa 21 3d 3c e1 ca 3d 6b d3 dc 3d 07 89 62 3c
       0.03954549 0.09906241 0.10782512 0.013826615
000150 40 38 1f 3d 3b 9a 96 3c bc 78 5d 3e e1 17 56 3d
       0.038872004 0.01838409 0.21628088 0.052268866
000160 3c 4d 44 3d 73 f6 6a 3d 97 26 0d 3e be f0 1f 3e
       0.04792522 0.05736394 0.13784252 0.1561918
000170 76 71 85 3c 65 48 06 3d f1 b4 9d 3d 23 45 91 3b
       0.016289454 0.032783885 0.077005275 0.0044332906
000180 38 cf 9f 3d 55 28 72 3d 90 59 2d 3e 76 bd f8 3c
       0.07803196 0.059120495 0.16928697 0.03036378
000190 28 8c ee 3a a6 e8 a8 3d 4b d2 df 3c ff 75 5f 3d
       0.0018199729 0.08247499 0.027321955 0.05455589
0001a0 65 63 a3 3d 4e e9 3d bd 9c 09 6c 3d a7 44 9f 3d
       0.079779424 -0.046365075 0.05762635 0.07776766
0001b0 11 5f 03 3e 1e a6 b3 3c 11 b6 dc 3d 82 78 7f 3b
       0.12829234 0.021929797 0.10776914 0.003898174
0001c0 e0 4e 95 3d b3 ce 50 3d 01 8f ca 3d 62 6d 9f 3d
       0.07290435 0.050978374 0.09890557 0.07784535
0001d0 b4 26 00 3e 6e 48 e6 3d 16 46 07 3e 49 91 bb 3d
       0.12514764 0.112442836 0.1321033 0.0915857
0001e0 6a 76 bb 3d 82 e1 e5 3d 45 e3 23 3d 0a 69 09 3e
       0.09153445 0.11224653 0.040011663 0.13418975
0001f0 e6 2c e8 3d fc e6 a4 bc 86 2a bc 3d 2a 6e 3b bc
       0.11336689 -0.020129673 0.09187798 -0.011439839

sequential/dense/MatMul f4 [128, 244]
000000 49 96 82 3c 38 c9 a9 bd dc b5 1b 3c 1b af d2 3d
       0.015940802 -0.082903326 0.009503808 0.10287305
000010 28 c4 41 bd 6a 63 2a 3e a3 08 8d bd 79 84 08 bd
       -0.04730621 0.16639486 -0.06886413 -0.03332946
000020 72 74 88 3e 5c df 3e bd eb 03 94 bd 4d 48 aa bd
       0.2665134 -0.04659973 -0.0722731 -0.083145715
000030 a6 3f 7b 3c 1b 0a 03 be 4f 8e 31 bd 16 02 55 bd
       0.015334999 -0.12796824 -0.043348607 -0.052003942
000040 f3 4b bf bd f5 aa fe bd 94 ad 7a 3e 1f 9e 00 3e
       -0.09340658 -0.12434951 0.24480277 0.12560318
000050 31 43 3c bd f9 9c 9e bb 1e 19 d6 bc 1c 35 e0 bd
       -0.045962516 -0.00484049 -0.026135024 -0.1094763
000060 89 1a 5f 3c 55 ed d9 bd 29 56 35 bc 00 e5 4a bb
       0.013617166 -0.106409706 -0.011067905 -0.0030959249
000070 48 bd 6a bc dc 0c 66 3c cb c5 50 3e 65 c5 c1 3d
       -0.014327355 0.014041152 0.20387952 0.09461478
000080 7f 92 c4 3d d6 af d4 3d 27 a0 1f 3e 17 e4 5f bd
       0.095982544 0.103851005 0.15588437 -0.054660883
000090 30 86 c1 ba 29 2c 95 bd d7 a3 73 bc 09 17 75 bd
       -0.0014764722 -0.072838135 -0.014870605 -0.05983642
0000a0 14 e0 25 3b db 9d b8 bd ff 26 f5 3c aa a1 42 3e
       0.0025310563 -0.090144835 0.029925821 0.19006982
0000b0 71 71 1a bd f6 60 ee bd 73 05 a3 bd e7 eb 70 3c
       -0.037705842 -0.116395876 -0.07960024 0.014704681
0000c0 a9 06 ff 3d 2a 28 03 be de 29 0b 3d 75 f5 30 3d
       0.12452442 -0.1280829 0.033975475 0.043202836
0000d0 df 3e 2a bd 52 cc 12 bd 4f e4 9c bd 4e 8f c4 bd
       -0.041563865 -0.035839386 -0.07660734 -0.09597646
0000e0 3f 1b 90 3d 07 2a c7 bd 43 94 35 be c0 d5 aa bc
       0.07036447 -0.09724813 -0.17732339 -0.020853877
0000f0 4e 06 e2 bd 33 0d be 3d ad c0 e3 bd ca 73 9b bd
       -0.11036359 0.09279861 -0.11120734 -0.075904444
000100 95 fa 15 3e 84 ef b4 bd 3a ef 6c bd 5f 93 e5 bd
       0.1464637 -0.088347465 -0.05784533 -0.112097494
000110 43 97 05 be dd 6f 93 3d 92 6f 20 bd 2f 16 83 3d
       -0.13045983 0.071990706 -0.0391689 0.064007156
000120 d2 36 86 bd d0 eb 4d 3d 02 be 53 3d 7d e4 b7 3d
       -0.06553425 0.050273716 0.051694877 0.089791276
000130 e4 a2 59 bd 29 04 a6 3d ce 4c 82 bc 63 51 e2 bd
       -0.05313386 0.08106262 -0.015905764 -0.110506795
000140 70 92 ae bd a1 21 03 3b f9 1d c4 bd 80 c4 b9 bd
       -0.085240245 0.0020009058 -0.09576029 -0.090706825
000150 c9 63 9f bc ca b4 43 be e6 ca 15 be ed d8 70 3d
       -0.019456761 -0.19111934 -0.14628181 0.058800627
000160 4d 7c ec bc f6 8c 4d 3b 95 bc 78 3d 88 9b e2 bd
       -0.028867865 0.0031364537 0.06072672 -0.110648215
000170 00 80 01 3e f6 36 f2 3d cb 89 17 3e 7e c1 02 bd
       0.12646484 0.11826889 0.14798658 -0.03192281
000180 31 b9 d4 3d 3e 52 81 bd 6c 2c ba 3d 0f 75 2a bd
       0.10386885 -0.063145146 0.09090504 -0.041615542
000190 e5 a9 aa 3c 0f 7e 8b 3d d9 46 d2 bd 1c 8e eb bd
       0.020832965 0.06811153 -0.10267419 -0.115017146
0001a0 95 0d ac bd 30 56 e0 bd 70 34 d6 bc 69 81 4f bd
       -0.08401028 -0.10953939 -0.026148051 -0.050660525
0001b0 64 fd e7 bb eb 6b ea bd a1 77 db 3e 1b 9f 28 3d
       -0.007079767 -0.11446365 0.42864707 0.04116736
0001c0 5b d8 83 3d f8 cd 21 3e 31 ac ee bd 3d a2 d0 bc
       0.06437751 0.15801227 -0.11653937 -0.025467986
0001d0 d8 6f cb bd 70 07 94 bd 46 67 e8 bd 7a 7a 27 bd
       -0.09933442 -0.07227981 -0.11347823 -0.040888287
0001e0 e8 b3 00 3e 8f b9 70 3e a3 23 a0 bd d7 b1 ae 3d
       0.12568629 0.23508285 -0.07819297 0.08530014
0001f0 22 56 1c bc b5 e5 09 3d 19 f2 8b bd bf 54 01 be
       -0.00954202 0.03366633 -0.06833286 -0.12629984
000200 90 4d ea 3c 14 1e ab 3d 8d db 7a 3e a5 de 4a 3c
       0.028601438 0.08355346 0.24497814 0.012382184
000210 3d bb a0 3c d0 f5 cb bd 6b 5d 8e bb 28 d8 8f bd
       0.019620532 -0.099589944 -0.0043446324 -0.070236504
000220 28 25 68 be 1d 2a cd 3c 44 6e 56 3e 02 1e 0c be
       -0.22670424 0.025044495 0.209405 -0.13683322
000230 29 a6 01 3e 82 db 8e 3d f2 e1 af 3b f9 d9 9a 3d
       0.12661041 0.069754615 0.005367511 0.07561106
000240 02 5a b5 bd 79 09 e8 bd 1b 28 7b 3d 1c a6 11 bd
       -0.08855058 -0.11329932 0.061317544 -0.035558805
000250 49 20 0c 3d 4a 28 36 be 9e 0c 3d bd 07 29 50 bd
       0.034210477 -0.17788807 -0.04615461 -0.050820377
000260 7c 90 24 bd 42 05 a2 bd 6b b1 71 bd 31 0e e0 3c
       -0.040176854 -0.07911159 -0.05900709 0.027350517
000270 b2 e2 c5 3d fb 94 b6 bd b3 1b a8 bd cc 11 a2 bd
       0.09662379 -0.089151345 -0.08208408 -0.07913551
000280 d6 ca e3 bd b6 0a 51 3e 52 5e 8a bd 87 ec a9 bd
       -0.11122672 0.20414242 -0.067562714 -0.08297067
000290 40 5a 15 be 81 84 2c 3d 5e a7 55 bd b4 e2 f3 bd
       -0.14585209 0.042118553 -0.052161567 -0.119084746
0002a0 b8 9d 07 3d 86 7d 5e 3e 57 d6 f9 3d f3 be 81 be
       0.033109397 0.21727571 0.12199085 -0.25340995
0002b0 32 47 d8 bd 99 47 cd bc dd 95 22 3c 37 60 16 3d
       -0.105604544 -0.025058554 0.0099234255 0.03671285
0002c0 81 a2 5d 3c 57 5d 33 bd d8 53 68 bd 07 1b e8 3c
       0.0135275135 -0.043790188 -0.056720585 0.0283332
0002d0 40 44 34 3c 60 0b 25 be 5d 67 12 3e a6 13 b9 bd
       0.0110026 -0.1611762 0.14297242 -0.09036951
0002e0 17 ec b6 bd f0 c4 bf 3d f4 f1 cc 3d 02 f2 95 bd
       -0.08931749 0.09363735 0.100070864 -0.0732155
0002f0 df 61 23 be 7e 01 78 3e 8a be aa 3d a4 18 86 bd
       -0.15955304 0.24219319 0.08337124 -0.065476686
000300 32 cd 2f bd 6e 7e 3d bd d2 05 ea 3d a5 54 76 3e
       -0.0429203 -0.04626315 0.114268914 0.24055727
000310 1c fb aa 3d b0 d3 63 3c b2 45 3f bb 16 a9 27 3e
       0.083486766 0.013905451 -0.0029185829 0.16373095
000320 85 87 27 bc a0 32 e1 3c 33 28 8e 3e 09 0e c2 3d
       -0.0102251815 0.02748996 0.27765045 0.09475333
000330 2c d1 76 3d 90 ac 2a bb c7 17 1a 3e 18 70 e1 bd
       0.060258076 -0.0026042797 0.15048133 -0.11007708
000340 f3 c5 38 bd 83 4b 2a bb 4d cd be 3d aa 8c 46 bd
       -0.045110654 -0.002598495 0.09316502 -0.04847399
000350 78 d4 33 bd 5f d6 0f 3d 88 23 a1 3d 56 48 32 be
       -0.043903798 0.03511655 0.07868105 -0.17410406
000360 85 cd e5 bd 92 4c 40 bc ec e5 40 bd dc 05 b0 bc
       -0.1122084 -0.011737006 -0.04709427 -0.021487169
000370 e9 d8 74 bc 50 5d 3f 3e 5b 82 bb 3d 59 05 9c bd
       -0.014944294 0.1868794 0.09155723 -0.076182075
000380 f7 ad 00 be e4 02 ed 3c da 4e 2d bd e1 68 ab bd
       -0.12566362 0.028932042 -0.042311527 -0.083696134
000390 f3 2e 86 bd 07 92 e3 bc fe 8b 17 bd fd a1 9b bd
       -0.065519236 -0.027779592 -0.03699874 -0.07599256
0003a0 74 a8 ae 3d 5f a4 05 3d 2c 96 52 3d ba 03 ba 3c
       0.08528224 0.03262746 0.051412746 0.022706855
0003b0 41 76 cb bd 40 85 e9 bd ee 99 a4 bd a6 39 d8 3e
       -0.099346645 -0.114023685 -0.08037172 0.42231482
0003c0 6d 7b da bd 29 65 fb bd 72 87 e2 bd 7a 9c f7 bb
       -0.10668073 -0.12275154 -0.110609904 -0.0075564953
0003d0 e0 d8 3b bb 37 19 bd bd 7a ed f8 bd 25 f6 a3 bd
       -0.0028663203 -0.09233325 -0.1215467 -0.08005933
0003e0 56 c1 10 be 2f 22 7e 3c ae 4e 96 3d eb 2e 8c bd
       -0.14136252 0.01551108 0.07339226 -0.068448864
0003f0 00 5d aa bd 0c 8d ec bd 29 62 5c 3c 83 bd 34 3d
       -0.083185196 -0.1155034 0.013451138 0.044126045

sequential/dense_1/MatMul f4 [64, 128]
000000 8a 34 af 3d 55 36 10 be ec 96 0c be 85 79 ae 3c
       0.08554943 -0.14083226 -0.13729447 0.02129818
000010 44 d6 3a be 9e 20 3a be 5d 70 71 be 53 c8 9a 3d
       -0.18245798 -0.18176505 -0.2357802 0.0755774
000020 52 79 85 3d d3 96 32 3e 03 2b 2b be e3 f3 9c 3d
       0.06517281 0.17440347 -0.16715626 0.07663705
000030 3a 13 6b be 0f 5e 40 3d c4 99 c3 bd d4 11 1d 3f
       -0.22956553 0.0469647 -0.09550813 0.6135533
000040 c1 ff 85 bd e1 31 a3 be 6c e2 18 3e 0c 03 85 bc
       -0.06542922 -0.31873992 0.14930123 -0.016236804
000050 47 f4 6b 3e d5 dc 5c bd 26 13 38 be 05 c5 88 be
       0.23042403 -0.05392154 -0.17976055 -0.26712814
000060 da 6c b0 3c b4 b0 c7 3d d4 a8 99 3e eb 2e f3 3d
       0.02153628 0.097505 0.30011618 0.11874183
000070 ae e6 24 3e 6f 40 3f 3e f9 d9 0d 3e 34 6c bb 3e
       0.16103622 0.18676923 0.13852681 0.3660599
000080 02 f5 76 bc a9 ea 89 bd d9 68 12 3d 28 11 34 be
       -0.015073063 -0.06734211 0.03574452 -0.1758467
000090 95 0d 19 be 22 a8 11 3e 99 0b 08 be 46 4c 12 3d
       -0.14946587 0.14224294 -0.13285674 0.03571727
0000a0 00 16 84 3e c0 3b 65 be d3 73 fa 3e a2 05 86 3d
       0.25798035 -0.22386074 0.48916492 0.06544043
0000b0 11 0a f7 bd 4c 97 7c bc 79 ac e5 3d bf f3 c7 3e
       -0.12062467 -0.015416931 0.11214537 0.3905315
0000c0 81 f2 62 bc 9a e1 07 3e e2 5a 4b bd 54 90 c8 bd
       -0.013851763 0.13269654 -0.04964722 -0.097931534
0000d0 59 68 87 bd b3 6c 2a 3e e9 70 00 3e 57 30 07 3d
       -0.066116996 0.16643028 0.12543072 0.033005085
0000e0 80 33 2b be e0 fe 87 3e 8a 00 8d be 52 ea 81 bd
       -0.16718864 0.26561642 -0.27539474 -0.06343521
0000f0 a7 36 bd bd 9a ba 6a be 98 02 49 3e 81 39 70 bd
       -0.0923894 -0.22922745 0.19629896 -0.05864859
000100 68 f5 e9 3d 36 3f d5 3d 0c 67 6a bd a0 ce 02 be
       0.11423761 0.10412447 -0.05722718 -0.12774134
000110 45 3d c7 3d a4 db 30 be 14 0f cf bd 6f 0e 70 bc
       0.09728483 -0.17271286 -0.10110298 -0.014651879
000120 f3 d5 b1 3d 14 1c c0 bd fd 54 58 bd 78 13 02 be
       0.08683386 -0.093803555 -0.052815426 -0.12702739
000130 e5 98 c9 3e 6a d3 9c 3e e1 8f 10 be d1 b8 bf 3e
       0.39374462 0.30630046 -0.14117385 0.3744569
000140 1b ee de 3d 04 17 1a be 93 cc da 3d fb cd bc 3e
       0.10885259 -0.15047842 0.10683551 0.368759
000150 ab b2 c0 3d a2 8e 25 bd aa 52 19 3c c7 2b 43 3c
       0.09409078 -0.04041923 0.009358088 0.011912293
000160 2d ec 0c 3c 55 47 dc bd e9 ef e2 bd ec 2b bd be
       0.008601231 -0.10755793 -0.110809155 -0.36947572
000170 ff ff fb 3c 74 4d e8 bc 04 95 1b 3e bc 82 1f be
       0.030761717 -0.028357245 0.15193564 -0.15577215
000180 41 b0 c3 3e a9 54 71 3e d6 9c cc bd ac 6e 04 bc
       0.3822041 0.23567452 -0.099908516 -0.008083027
000190 7b 3e 03 3e f8 4e 32 be 9a 36 77 3d 76 15 c9 bd
       0.12816803 -0.17412937 0.060354806 -0.098185465
0001a0 67 b4 e0 3d 0b 9b 86 bd 62 20 8f 3c a0 5d e5 bc
       0.10971909 -0.06572541 0.017471496 -0.027998745
0001b0 c3 0c de bc 96 6b 14 3d 99 87 ee 3b 4c 31 c0 bd
       -0.027105695 0.036235414 0.007279348 -0.09384403
0001c0 06 2d 11 be 71 5a 5e 3e 14 30 94 3e 3a f6 28 be
       -0.14177331 0.21714188 0.2894293 -0.16500178
0001d0 d7 d8 90 be 10 40 d7 39 6b e6 44 3e b8 6f d2 bd
       -0.28290436 0.00041055726 0.19228522 -0.10275215
0001e0 ca fa f8 3d 14 37 c3 3c 26 13 93 be b8 5c 4d 3d
       0.12157209 0.023829974 -0.28725547 0.05013725
0001f0 8a 48 9d 3d 3a 0e 20 3d 56 8b 79 3c 76 fa a4 3d
       0.07679851 0.039076068 0.015230974 0.08055584
000200 da 66 e4 3e 9a c9 53 be f2 7e 92 bc 27 eb b2 3e
       0.4460972 -0.20682374 -0.017882798 0.34945032
000210 a0 cc 6c be 5a 91 14 3c 01 57 91 bd 66 b0 2b be
       -0.23124933 0.009067858 -0.07096673 -0.1676651
000220 f6 a6 3b 3e a9 72 dc bd cb 9c 20 be fc b8 2d bd
       0.1832541 -0.10764057 -0.15684812 -0.042412743
000230 a2 9f 37 be 57 c5 1f 3e b7 22 f7 bd cd 3f fc 3d
       -0.17931989 0.15602623 -0.12067168 0.123168565
000240 b4 1e d7 3e 29 c0 88 be b4 ee f0 3c 86 70 d5 3d
       0.42015612 -0.26709107 0.029410698 0.10421853
000250 af 1e 70 be 2b 75 2b 3e 7a 15 fb bd a2 c9 a5 be
       -0.23449205 0.16743915 -0.12259956 -0.32380396
000260 01 0c bd bd a2 f4 89 be 28 24 f0 3b ea 30 e6 bc
       -0.09230805 -0.26944453 0.007328529 -0.028099496
000270 d5 5f 56 3e a3 95 a9 bd 10 ec 21 3e ec ca 6b be
       0.20934995 -0.08280494 0.15812707 -0.23026627
000280 0e 67 ee bd 00 a5 f5 bd 44 f2 6d bb 92 7a b0 3e
       -0.1164075 -0.11994362 -0.0036307732 0.34468514
000290 0f 46 0b 3e 61 51 c2 bd 9a 1e a2 bd 39 73 d8 bd
       0.13600944 -0.09488178 -0.07915993 -0.10568852
0002a0 50 f4 89 3e 7f 37 42 3d 79 9d 64 3e 13 1b 8a be
       0.26944208 0.047416206 0.22325696 -0.2697378
0002b0 a9 e8 4f be 79 31 33 3e ce 8e f2 3c be 69 00 3e
       -0.20303597 0.17499341 0.02960911 0.12540337
0002c0 9b 24 ad be f6 b4 b7 bd d6 98 db 3a 7d ee 8d 3d
       -0.3381699 -0.089700624 0.0016753923 0.06930254
0002d0 68 31 04 3e 94 bf 91 3d 78 b1 1b be de f2 bb bd
       0.12909472 0.07116619 -0.15204418 -0.091771826
0002e0 ff 4b 46 3d 5b 95 ad 3d f2 4c 4c be 9f 87 b4 3d
       0.04841232 0.08475753 -0.19951227 0.0881493
0002f0 f7 c5 1e be 39 9f 28 be 9b 68 cd 3d d6 ad 64 be
       -0.15505205 -0.16466989 0.100297175 -0.22331938
000300 9c e3 68 bd a2 d9 bd 3d f5 a4 b5 3d 26 3b 0f 3d
       -0.05685769 0.09270026 0.08869354 0.034968518
000310 9d e7 29 be a9 ae c0 3d f3 e0 8c 3e 06 e9 a9 be
       -0.1659226 0.09408314 0.27515373 -0.33185595
000320 52 8f 4c be 81 8c 94 bd 90 f2 b2 3c e4 af b5 bd
       -0.19976547 -0.072533615 0.021844178 -0.08871439
000330 85 fe 03 bc 43 32 c6 3d db 10 3a be 7b cc 98 be
       -0.008056288 0.096775554 -0.18170492 -0.29843506
000340 b3 8d c9 bd 2c f7 28 3e c8 6e 1a 3e 61 aa dd 3c
       -0.0984148 0.16500539 0.15081322 0.027058782
000350 c9 78 92 be be 53 bb bd f5 ce 21 be 8f db cc 3d
       -0.28607777 -0.09146832 -0.15801604 0.10002815
000360 c0 b4 c8 bd 13 6d 11 3e 66 fe 43 be 96 ca de 3e
       -0.098001 0.14201765 -0.19140014 0.43513936
000370 77 ca 4f 3e 4d b3 ca 3e 6b 44 0d 3e 8d c1 d8 bd
       0.20292078 0.3958992 0.1379563 -0.10583792
000380 78 1f 7d 3e 6c de e1 bd 95 31 d0 bd f8 cc f5 3d
       0.24719036 -0.11028752 -0.10165707 0.12001985
000390 b8 65 bc bd ba 9c b9 3d 7b d6 96 3c ba 3e 40 3e
       -0.09199089 0.09063096 0.01841282 0.18773928
0003a0 51 03 da 3d 01 0f fc 3d 9b 2f 63 3e 82 d3 97 3e
       0.10645164 0.12307549 0.22186129 0.29653555
0003b0 53 16 7f 3e 0b 63 47 3e 40 26 82 3e ac 07 65 3e
       0.2491086 0.19471376 0.25419807 0.22366208
0003c0 18 eb 86 be 0e 64 47 3e b5 f2 e5 3d fd 5b 9d bd
       -0.26351237 0.19471762 0.11227933 -0.07683561
0003d0 31 b4 b0 ba 3f 31 96 3d 2b f4 b5 bd 9d c1 3a be
       -0.0013481436 0.07333612 -0.08884462 -0.1823792
0003e0 0d 2d 25 3e 7a e8 3d be 53 37 2d 3e 80 6f 0b be
       0.16130467 -0.18545714 0.16915636 -0.13616753
0003f0 4b 44 b4 bc 6e 9f 2b be 40 34 8a be ec 26 5b be
       -0.02200522 -0.16760036 -0.2699299 -0.21401566

sequential/dense_2/MatMul f4 [29, 64]
000000 f3 2a a0 3e 58 0a 85 be f7 3d f6 bd 75 fd 8c 3d
       0.31282768 -0.25984454 -0.120235376 0.068842806
000010 c7 9b b4 be 76 86 b5 be 09 6c 03 bf 8a 7f 88 be
       -0.352751 -0.35454148 -0.51336724 -0.26659805
000020 b8 7e ff 3d 33 58 06 bd 68 20 00 bf 8c 60 e8 3d
       0.124753416 -0.032798957 -0.5004945 0.1134654
000030 12 95 c6 bd cb 60 6d be cb 48 c3 be 13 b6 9d 3e
       -0.09696402 -0.23181455 -0.38141474 0.30802974
000040 be 64 b1 bd f8 b1 25 bf ad 1c ea 3e 86 80 c5 3e
       -0.08661793 -0.64724684 0.45725003 0.38574618
000050 19 31 32 be 89 67 04 be 52 b6 00 bf ec 16 8b 3e
       -0.17401542 -0.1293012 -0.502782 0.27165926
000060 3d 28 4d 3e 4c 60 74 3e cb 01 c7 be 0f 8b 4b 3e
       0.20034881 0.2386486 -0.38868555 0.19877265
000070 f8 e4 51 3e 2c 1d 2d bd 28 50 10 bf 88 56 6b 3d
       0.20497501 -0.04226415 -0.5637231 0.05745557
000080 8e a1 b0 bd 9c f6 96 be 07 d9 d2 3e e4 fe e2 bd
       -0.08624564 -0.29485023 0.41181204 -0.11083773
000090 30 08 75 3e 5a 40 6b be 05 9e 8d 3e 17 46 04 bf
       0.23928905 -0.22973767 0.27659622 -0.5166945
0000a0 e5 be 1c 3f b9 9e e4 3e a6 84 be be 38 bc 66 bd
       0.6122878 0.44652346 -0.37210578 -0.056331843
0000b0 4a f9 03 3f 5b 29 40 bd ae 49 02 3e 6b 00 7b be
       0.5155226 -0.04691444 0.12723419 -0.24511878
0000c0 2f 9e d9 3e f3 8f 04 bf 6b b1 eb be f4 28 01 be
       0.42503497 -0.5178215 -0.46033797 -0.12613279
0000d0 ca 45 d1 3d fd 70 0b 3f 9b 51 e9 3e 31 69 db 3e
       0.10218389 0.5446928 0.45570073 0.42853692
0000e0 35 8a ef be 7e 20 06 bf b2 dc b4 be 11 e2 d4 3e
       -0.4678513 -0.5239333 -0.35324627 0.41578725
0000f0 50 7f 75 3e 6c 2d d7 3e f1 47 e9 3e 55 46 0b 3f
       0.23974347 0.42026842 0.455627 0.54404193
000100 34 02 86 3d ab c1 17 3f 0d 2a 87 3d 45 18 71 3e
       0.06543389 0.5927989 0.065998174 0.23544414
000110 07 6d d7 be 5d 74 aa be ee 3e e7 bd 75 cc cc 3e
       -0.4207537 -0.33291903 -0.112913 0.39999738
000120 d6 29 f1 3e 58 fb d1 3d cb 4d c7 bc 80 0c 6b be
       0.4710223 0.10253018 -0.024329087 -0.22953987
000130 7c 0d ac 3e 7b 69 cc 3d 6a 8c c1 be bd 4f 9d bb
       0.33604038 0.09981056 -0.3780244 -0.0048007653
000140 ac 43 a1 3e dc 57 92 bd f5 3a 05 3f 7b c7 95 3e
       0.31496942 -0.07145664 0.52043086 0.29253754
000150 f4 44 c5 3e ef 95 24 3e de d1 b7 3e fc cd b6 be
       0.3852917 0.1607282 0.35902303 -0.3570403
000160 93 ad ef 3d 2b 64 e2 be 31 9a d4 3d fd 3d ca be
       0.117030285 -0.44217047 0.10380972 -0.39500418
000170 8f 02 f9 be ce ae e2 be e6 d0 5c be c5 ca 98 be
       -0.48634765 -0.4427399 -0.21564063 -0.298422
000180 ae 1f d0 be 1c 36 b9 be dc 09 26 be 12 2e 10 3f
       -0.4064917 -0.36174095 -0.16214699 0.563203
000190 28 10 a5 be 71 90 c4 be f1 62 5b 3e 95 7a 81 3d
       -0.3223889 -0.3839145 0.21424462 0.06322209
0001a0 8c 8f 11 3f 29 65 b0 3e 21 91 28 be eb d4 ba 3e
       0.5685966 0.3445218 -0.16461612 0.3649057
0001b0 ab 13 c7 3e 69 07 0b bf 8a e5 66 3e 41 e5 0c 3d
       0.38882193 -0.5430818 0.225485 0.03439832
0001c0 6a 1d e6 3e 51 75 e2 bc 5d 0f 8c be d2 b2 bc be
       0.44944316 -0.027643831 -0.2735547 -0.3685518
0001d0 21 08 c0 be e5 02 bf 3e 18 88 38 be 67 0c 93 be
       -0.37506202 0.37306896 -0.18020666 -0.287204
0001e0 fd 2b 92 3e 30 dc b6 3e e1 d8 3c be 44 80 c4 be
       0.28549185 0.35714865 -0.18442108 -0.3837911
0001f0 57 9a 50 3e c4 8f 8a 3e 41 e1 8f be 98 b2 9e 3e
       0.20371376 0.2706281 -0.28101543 0.3099563
000200 27 1a 18 bf d4 12 f4 bd 0d bd 13 bf fd a9 ab bd
       -0.59414905 -0.11917654 -0.57710344 -0.08382032
000210 0e 0e 29 bf b7 96 cb be e0 3b 29 bf 8b cb 05 3f
       -0.6603707 -0.39763424 -0.66106987 0.52263707
000220 ff 4a a4 bc 7b b2 10 be 8a c5 d0 3e 35 cf e5 3e
       -0.020055292 -0.14130585 0.4077571 0.4488465
000230 33 53 18 3f a4 49 c3 3e 5b 38 cc be 65 e7 6a bd
       0.5950195 0.3814212 -0.39886746 -0.05734958
000240 b1 ff e1 be 0b b2 ee be a9 85 34 3d c9 37 61 3d
       -0.4414039 -0.4662021 0.04407278 0.05498484
000250 d1 2d a3 be f1 2f 19 bf 6a c6 78 3e 0e 44 3f bf
       -0.31870893 -0.5983878 0.24294439 -0.7471322
000260 fc fb 53 bf e3 0e 05 bf 3c 26 8c 3e 12 dc 26 bf
       -0.8280637 -0.5197584 0.2737292 -0.6517955
000270 6f c3 af 3e 4f f7 89 3e b4 8b 50 be 51 16 fd 3e
       0.34328791 0.26946494 -0.20365793 0.4943109
000280 7a e8 6e be 34 97 24 3e 6b 4a a3 3e 44 f4 32 3e
       -0.2333087 0.16073304 0.31892714 0.17475992
000290 76 3b 09 bf ab 61 20 bf 7a a3 a1 3e e5 03 91 3e
       -0.53606355 -0.6264903 0.31570035 0.28323284
0002a0 f4 9f 2a 3f 7e 3e 15 3e 5b c2 e6 be 9d bf e4 bc
       0.6665032 0.1457462 -0.45070156 -0.0279234
0002b0 d0 ab f7 3e a6 41 a2 3e c1 03 b0 3e 92 9f 2c be
       0.4837327 0.3169071 0.34377864 -0.16857746
0002c0 b3 f3 99 3e 9f 25 21 bf 15 35 23 3e 73 4e 18 3e
       0.3006874 -0.6294803 0.15938218 0.14873676
0002d0 09 93 e1 3e 83 5e b7 3e 2a 11 8a 3e e7 43 b1 be
       0.4405749 0.35814294 0.2696622 -0.34622118
0002e0 a5 28 f1 bb 71 23 e8 3d 08 c3 3d 3e 02 01 4a be
       -0.0073595815 0.11334885 0.1853143 -0.19726947
0002f0 20 4d 6b bc e3 59 8a 3e 4e 12 f9 3e 33 f5 56 be
       -0.01436165 0.27021703 0.48646778 -0.20991974
000300 6e 02 8c 3e 08 a8 6e 3e 31 26 e3 bc 50 fd 78 3e
       0.27345604 0.23306286 -0.027728172 0.24315381
000310 e2 5a 9e be 24 e3 0a be 77 f7 95 bd 12 f5 c0 be
       -0.30928713 -0.1356321 -0.07322591 -0.37686974
000320 64 2a 2a be 5b b8 b3 3e 3f ed 86 3d ec 96 c5 3e
       -0.16617733 0.3510159 0.0658822 0.38591707
000330 65 05 b9 bd 2e fe d1 3e 7b 10 02 be e3 e4 e8 bc
       -0.09034232 0.41014236 -0.127016 -0.028429454
000340 08 4c b8 bd ba 27 9c be 88 03 3a be 6e c0 7c be
       -0.08998877 -0.3049906 -0.1816541 -0.24682781
000350 86 f1 a1 3d 5f 38 38 be e7 0d b1 3e 2c c0 44 be
       0.07907395 -0.17990254 0.3458092 -0.19213933
000360 dd 4e dd 3e 8f 13 c6 3e ec 05 38 be 00 d9 d3 3e
       0.4322423 0.38686797 -0.17971009 0.41376495
000370 05 6b 6c 3e 1a d2 f1 3e c8 4d 7e 3e 59 44 83 bd
       0.230877 0.47230607 0.24834359 -0.06409521
000380 5d c8 4d be 20 73 6b bd 20 a5 e7 3e e0 7f 92 bd
       -0.20095964 -0.05748284 0.45243168 -0.071532965
000390 e4 06 87 be af 30 be 3e 46 e6 cd be 39 ff 0c be
       -0.26372445 0.37146518 -0.40214747 -0.13769235
0003a0 9c 45 d9 be 25 22 62 3e 2b 43 a4 be fc cb 3a 3e
       -0.4243592 0.22083338 -0.32082495 0.18241876
0003b0 f8 2b cc be 47 8b 9a 3d 6c d6 cc be f0 59 f5 3e
       -0.39877295 0.07546096 -0.4000734 0.4792018
0003c0 1a 01 46 3e 3f 7b 86 be 0f f9 b2 3e b5 ab 65 be
       0.19336358 -0.26265904 0.34955642 -0.22428782
0003d0 c3 8c 04 3e a1 18 41 3d 8d 0f ee 3e 57 da 1c be
       0.12944321 0.04714263 0.4649624 -0.15317665
0003e0 1e 7c 6e 3e 7e e2 a1 3e 6d 13 73 3e d1 e0 7a 3d
       0.23289534 0.31618112 0.23737879 0.061249558
0003f0 56 a2 a5 be 50 68 82 be 96 7e 76 3d ed 65 aa be
       -0.32350415 -0.2547021 0.060179316 -0.33280888
