Chatbot/model.tflite (tflite, 168096 bytes, 6 tensors)

sequential/dense_1/BiasAdd/ReadVariableOp f4 [64]
000000 c4 00 68 bd 08 c2 7d 3e 12 06 55 3e e8 67 86 3c
       -0.056641355 0.24781048 0.20803097 0.016406968
000010 8a d0 46 3e 53 0e 25 3c a8 8b 96 3d b4 7e ae 3e
       0.19415489 0.010074216 0.07350856 0.34081042
000020 18 60 7b 3e 74 d1 37 3e 2c a9 ab 3e 7b 32 e1 3c
       0.24548376 0.17950994 0.33527505 0.027489891
000030 d8 f4 80 3e c9 2b a6 3e 26 50 3f 3e 4a 1a 06 3e
       0.251868 0.3245528 0.18682918 0.13095966
000040 ec e4 30 3d 71 7e a9 bd ec 95 89 bc f7 a5 36 3e
       0.043187067 -0.0827607 -0.016795121 0.17836748
000050 40 4a 8c 3e a3 2b 9b bd e0 39 57 3e b3 7d e1 3d
       0.27400398 -0.075766824 0.21018171 0.11010303
000060 3f 4b a5 3c 5b 8d b5 3e 7d f5 1b 3e d5 ad bd 3e
       0.020177482 0.35459408 0.15230365 0.37046686
000070 3c 59 8d 3e 33 34 aa 3e 2a b3 48 3d 09 cb 20 3e
       0.27607143 0.3324295 0.04899899 0.15702452
000080 35 dd b6 3d 78 6a 9a 3d 74 4c 98 3e 11 7d c2 3d
       0.08928911 0.075398386 0.2974583 0.09496511
000090 98 02 c9 bc 42 85 41 3f 0b 7c 92 3e 88 0a c6 3d
       -0.02453737 0.7559396 0.28610262 0.096699774
0000a0 a4 e0 92 3d 0b be 8e 3e ef ee 10 3e 44 fa 6f bd
       0.07171753 0.27879366 0.14153646 -0.05858828
0000b0 e1 fb 55 3e 97 8b 3e 3f 03 70 f9 3d ca 99 73 3d
       0.20896865 0.7443175 0.12179568 0.059472837
0000c0 8c 3e 3e 3e 57 e9 d9 3e 29 44 0e 3e ea 46 bd bc
       0.18578547 0.42560837 0.13893189 -0.023105104
0000d0 28 63 3e 3e 8f d5 8a 3d 8e 2c a8 3e c0 ec b3 3e
       0.18592513 0.06779014 0.32846493 0.35141563
0000e0 ab 4b fc bc f0 d8 04 3e 8e 4f bd 3c ee 2b b5 bd
       -0.0307978 0.1297338 0.023109224 -0.088462695
0000f0 8d c7 9f 3d e4 46 f7 3e c7 86 e0 3e cf d3 0f 3f
       0.07801733 0.48296273 0.43852827 0.5618257

sequential/dense_2/BiasAdd/ReadVariableOp f4 [29]
000000 32 27 bb be fd 1e 53 3f 00 a7 94 3f f0 7c ef bb
       -0.3655334 0.8246916 1.1613464 -0.007308595
000010 b9 06 25 3d ea 90 24 be e2 d0 86 be 27 5d ff 3e
       0.040289614 -0.16070905 -0.2633124 0.49875757
000020 da 85 0b 3e 07 eb 8e 3e 8a 7f a6 be 7c 48 df 3d
       0.13625279 0.27913687 -0.3251918 0.10902497
000030 1b 6c 21 bf 94 4f 89 be a5 1e 63 be dc 1d c4 bd
       -0.6305558 -0.26818526 -0.22179659 -0.09576008
000040 88 66 61 3d 1e 16 ad bd 30 e9 1f be fc d5 97 bc
       0.055029422 -0.08451484 -0.15616298 -0.018534653
000050 0c 85 75 bd 94 08 e2 bd e6 d2 76 3e 29 5e d3 3e
       -0.059941337 -0.110367924 0.24103889 0.41282776
000060 2d a7 0f 3e c5 a5 32 3e e4 06 d9 be 0c 1b e2 be
       0.14028616 0.17446049 -0.4238807 -0.4416126
000070 4a 15 e1 be
       -0.43961555

sequential/dense/BiasAdd/ReadVariableOp f4 [128]
000000 45 70 75 3d bf dd 04 3e a3 f0 f0 bc ed 37 c2 3c
       0.05992152 0.12975214 -0.02941162 0.023708308
000010 eb 5e cd 3d 42 2a bb 3d d9 f8 07 3e 74 84 71 3d
       0.1002787 0.091389194 0.13278522 0.058964208
000020 ba f0 77 3d 0c c7 06 3d 46 ce 87 3c 65 5c 24 3e
       0.06053231 0.03290467 0.016577851 0.1605087
000030 40 21 e5 3b 74 3a 0f bb 8d c7 5d 3d 9e b9 6e 3d
       0.006992489 -0.002185491 0.054145385 0.058282487
000040 8b 68 08 3e c7 94 a6 bc 63 0c 1e 3e e9 4e 77 3d
       0.1332113 -0.020334614 0.15434413 0.06037799
000050 07 c8 cc 3d a6 b0 9a 3c d4 6b 60 3d d9 93 b3 3c
       0.0999909 0.01888306 0.054790333 0.021921085
000060 3e c1 00 3e f6 b1 0a 3e 60 7e a6 bc 36 53 02 3d
       0.12573716 0.13544449 -0.020323932 0.031817637
000070 9f 40 39 3e e8 27 83 3d 26 2b e9 3d c3 30 9b 3d
       0.18091057 0.06404096 0.11385183 0.0757766
000080 a0 98 25 bc fa 1a 74 bd 08 9b 89 3d 1f 2d 76 3c
       -0.010107189 -0.05959604 0.06719023 0.015025406
000090 c8 d9 c4 3d cd 37 0b 3e 8e 99 ba 3d 0d 10 e5 3c
       0.09611851 0.13595505 0.091113195 0.027961755
0000a0 e9 48 29 3c 31 5f 1c 3d cc fd a4 3d 58 0b 5d 3c
       0.010332325 0.03817672 0.080562204 0.013491474
0000b0 0c c9 cc 3d c8 0a 84 3d 00 77 1a 3d 88 a8 a9 3d
       0.09999284 0.06447369 0.037711143 0.08284098
0000c0 31 a4 e6 3d f1 30 d5 3d 95 ea 36 3e 2f 80 7a 3d
       0.11261786 0.104097255 0.17862923 0.0611574
0000d0 63 7b 37 3d 37 43 b6 3c f3 60 97 3d a4 b4 d5 3d
       0.044795405 0.022248847 0.073915385 0.10434845
0000e0 29 68 2c 3e c0 79 32 3e aa 6f 63 3d 2e 9e b7 3c
       0.16836609 0.17429256 0.055526413 0.022414293
0000f0 f3 c1 22 3d 54 b3 ad bc 76 89 28 3e 34 4e d0 3d
       0.039735746 -0.021203674 0.16458687 0.10171166
000100 17 92 8c 3d 83 4b 16 3c 36 d6 8f bc 72 af d3 3d
       0.06863802 0.009173277 -0.017558198 0.10336198
000110 92 e8 0b 3e 4f 7d 72 3d c7 b4 9b 3d ea 7b a7 3b
       0.13662937 0.059201535 0.0760284 0.0051112073
000120 c7 91 27 3d be 26 31 3e fa 9a 81 3d 38 41 e4 3d
       0.04091051 0.17299935 0.063283876 0.11145252
000130 b5 59 26 3d 08 28 2c 3c 03 5c fa 3d 71 13 29 3e
       0.040612895 0.010507591 0.12224581 0.16511323
000140 cb f5 c0 3d a1 ea 87 3d 27 74 b4 3d e0 62 a9 3d
       0.09421881 0.06636549 0.08811217 0.08270812
000150 5c d1 ac 3d 4b e4 e5 3d a5 82 d2 3d f5 04 f3 3c
       0.0843837 0.11225184 0.10278825 0.02966545
000160 f6 be bc 3d 3f 04 e2 3c de 29 51 3d 9f f1 7d 3d
       0.092161104 0.027589915 0.05106532 0.061998006
000170 ff 58 f5 3d 1f 38 27 3e e6 0e df 3d 07 bf c5 3d
       0.11979865 0.16330002 0.108915135 0.09655576
000180 8d 9c 55 bc 91 7e a1 3c 92 36 20 3d 4a a3 b6 3d
       -0.013037813 0.019713672 0.039114542 0.08917864
000190 54 39 05 3d 6f 40 8e 3c e3 21 72 3d 5d bc 35 3d
       0.032525375 0.017364709 0.05911435 0.04436909
0001a0 6a d6 74 3d b1 de ab 3d 4a dc 56 3d 4c e2 e9 3d
       0.059774794 0.083920844 0.052456178 0.11420116
0001b0 24 67 13 3c 6b 97 39 3e 37 96 d1 3c 59 26 5c 3c
       0.008996759 0.18124168 0.025584323 0.013436877
0001c0 f4 cc 15 3e 23 e0 ae bc ad cb ff 3d 68 42 43 3d
       0.14628965 -0.021347111 0.1249002 0.04767075
0001d0 ea 68 51 3d 0d 8d de 3d c0 fa b1 3d f3 61 72 3d
       0.051125444 0.10866747 0.08690405 0.059175443
0001e0 d1 89 ed 3d b9 56 75 3e df 7e 45 3d 25 10 c0 3d
       0.11598552 0.23958863 0.048216697 0.09378079
0001f0 96 ad 8b 3d 16 7b 03 3e 83 7a da 3d 6c 28 ed bc
       0.06820218 0.12839922 0.106678985 -0.028949939

sequential/dense/MatMul f4 [128, 244]
000000 1c e9 96 bc d0 9b 00 bc f2 9a 8e bd 7b f2 11 3e
       -0.018421702 -0.007849649 -0.06963147 0.14252655
000010 c7 f3 61 3d 24 d2 0b be b5 9e 05 3d 54 d0 6f 3d
       0.055164125 -0.13654381 0.032622058 0.058548287
000020 b5 c1 10 be b2 3a 32 3a 7c af 4b 39 61 bb 98 bb
       -0.14136393 0.00067989074 0.00019424962 -0.004661009
000030 b0 95 40 3c 94 bb 6a 3d bf 08 ff bd cc 74 8a bd
       0.011754438 0.057307795 -0.1245284 -0.067605585
000040 05 9e d8 bd e0 3d 80 3a 66 59 c7 bd 7c 95 bc 3d
       -0.10577015 0.0009784065 -0.09733848 0.092081994
000050 6f 74 83 bd 72 20 5a bd 14 eb 95 bd 03 a7 2b 3d
       -0.06418692 -0.0532536 -0.07320228 0.04190732
000060 ff 21 35 3e bd 82 29 3d 69 96 62 bd bc 65 4d bd
       0.1768875 0.041384447 -0.055319224 -0.05014585
000070 79 5a 45 3d 51 e3 3c 3d 8b c8 47 bc a0 e9 82 3c
       0.048181985 0.046115223 -0.012193809 0.015980542
000080 5d 5e 81 bd b7 f9 82 3d be 91 0d be 2c b0 ab bd
       -0.063168265 0.063952856 -0.13825127 -0.083832115
000090 6f 16 3b bd b9 6e 95 bd a7 4d 69 3d 83 7f 29 bd
       -0.04567569 -0.07296509 0.05695882 -0.04138137
0000a0 4c 04 95 bb fc 09 a8 bd 3f 92 93 bd 63 63 2c 3d
       -0.0045476314 -0.08205029 -0.072056286 0.04208697
0000b0 91 c8 aa bc f7 5f 82 3d 4c ff 96 3d 13 91 cc bc
       -0.02084759 0.0636596 0.07372913 -0.02497152
0000c0 a9 a9 02 be b7 50 f6 3d 4b 99 fd 3c d8 bf e6 3d
       -0.12760033 0.12027114 0.030956885 0.1126706
0000d0 35 a3 f7 bd d4 f3 e5 3c 1e 97 01 3c cc 6d 4e 3e
       -0.12091676 0.028070368 0.007909564 0.20159072
0000e0 fe a7 84 3d 19 c1 02 bd 50 84 13 3d 9d cc d0 3d
       0.064773545 -0.031922434 0.036014855 0.10195277
0000f0 54 16 ba 3a 1e 8c 8a bd 48 fb 34 3e 98 41 9a 3d
       0.0014197328 -0.067650065 0.17673981 0.07532042
000100 07 7a e7 3c e9 68 ff 3d b2 d4 aa 3d 2d a0 80 3c
       0.02825643 0.12471182 0.0834135 0.015701378
000110 00 b1 f8 bd 08 a6 fc 3c 02 be f2 3c 17 3d 71 bd
       -0.12143135 0.030840889 0.029631618 -0.05889615
000120 f0 83 0c be 06 e0 31 bd 95 cd 70 3d a7 5c 52 3a
       -0.13722205 -0.043426536 0.05878981 0.00080246705
000130 bd 3f 72 bd d8 61 20 3d 80 45 7a bd 45 8b c7 3c
       -0.059142817 0.03915581 -0.061101437 0.024358401
000140 7e 69 0b be 55 11 98 bd 75 5c a9 bd 19 9a 89 3d
       -0.13614461 -0.07425181 -0.08269588 0.06718845
000150 8c 26 81 3d 08 f9 a4 bd 10 de 2e be b1 40 69 3d
       0.0630618 -0.080553114 -0.17076898 0.05694646
000160 38 21 0e bd 85 23 80 3c 1e b6 aa bd 0a 2f f1 bd
       -0.03469965 0.015641937 -0.08335517 -0.1177655
000170 5c b6 97 bd 9d 45 b2 3d e8 86 41 3c ba 58 ad 3e
       -0.07407829 0.08704684 0.011811949 0.33856755
000180 04 f4 ee bd 05 68 cc bd cc ba 04 be 0f 1a 89 bd
       -0.11667636 -0.09980778 -0.12961882 -0.066944234
000190 6a d6 1c 3e af bb f6 bd 9f fd e3 bd a4 81 08 3e
       0.15316167 -0.120475166 -0.11132359 0.13330704
0001a0 c6 b4 ad 3d 5e ca 26 be 60 d9 c0 3d 41 e6 a4 3d
       0.084817454 -0.16288134 0.09416461 0.0805173
0001b0 a4 b8 9a 3d ab bb 7f ba fe 2e c1 be 3f 19 a7 bd
       0.07554749 -0.0009755443 -0.37731165 -0.08159112
0001c0 39 90 99 be 77 b2 9c bd 44 ca c6 3d 40 0d 00 bc
       -0.29992846 -0.07651227 0.09706548 -0.007815659
0001d0 9a 37 f1 bd 44 93 5d 3e 2d 7f f0 bd 8d 57 00 3e
       -0.11778183 0.21638209 -0.11743007 0.12533398
0001e0 20 d9 6a 3c 02 9f c1 bd 6a 3f 95 bd b8 d8 6e bd
       0.014333993 -0.094541565 -0.07287486 -0.058312148
0001f0 22 62 5d 3e 99 0b 4f bc 57 2e e2 bd 37 5d c2 38
       0.21619466 -0.012637042 -0.11043995 9.2680035e-05
000200 ea 80 9e 3d 85 04 54 bd 0a 6b 4e be 17 fe 03 3e
       0.07739432 -0.051762123 -0.2015802 0.12889896
000210 29 68 02 be e4 7a 5c bd d4 07 3a 3d 9e ab 9d bd
       -0.12735046 -0.053828135 0.04541762 -0.07698749
000220 2c 99 8b 3e e1 d9 f3 bd 04 65 9f be 10 dc b1 bc
       0.27265298 -0.119067915 -0.31131756 -0.02171138
000230 cb 8c 93 3c 36 83 f1 bd e6 6c 1e 3e 93 b3 a3 3d
       0.018011471 -0.117926046 0.15471229 0.079932354
000240 0a ba c5 bd 08 f2 aa 3d 44 3f 14 3e 77 bd 80 3d
       -0.09654625 0.08346945 0.14477259 0.062861376
000250 99 c7 c1 3e 34 11 a4 bd f2 c9 f4 bd 60 42 38 3d
       0.37847593 -0.08011094 -0.119525805 0.044985175
000260 84 16 d8 bc 39 e0 80 bd b9 ba 4d 3d 14 3f 94 3b
       -0.026377924 -0.06292767 0.0502269 0.004524121
000270 70 5a 65 bd b8 d3 d3 bd a7 f4 2b bd a6 df 84 bc
       -0.05599445 -0.103431165 -0.041981366 -0.016219925
000280 1b 57 b7 3d 88 5b 0a 3e 68 9b 67 3d 20 5e d1 bd
       0.08952161 0.13511479 0.05654469 -0.10223031
000290 ba 9c 7e 3c 98 01 e5 3d 3b 8f ba 3c 57 a4 90 3c
       0.015540296 0.111819446 0.022773376 0.017656488
0002a0 87 eb 9a 3d ec 65 50 3b 52 9f b0 3d 71 c2 c1 3d
       0.075644545 0.0031799031 0.08624138 0.09460915
0002b0 39 5f 04 bd 00 88 e7 38 89 84 d4 bd ac 29 45 bd
       -0.032317374 0.0001104027 -0.103768416 -0.048135445
0002c0 d1 c4 1c bd 84 b9 f7 3d c6 55 2e bd 4d 11 8d bc
       -0.038273636 0.12095931 -0.04256227 -0.017220164
0002d0 54 ff d1 3d 93 9e 68 3e fa 14 18 be 0a ee 23 3e
       0.10253778 0.22716741 -0.14851752 0.16008773
0002e0 2d e6 62 3e 77 66 15 3f 7f 66 5a bc 59 b4 77 3e
       0.22158118 0.58359474 -0.013330101 0.24189891
0002f0 a4 e0 21 bd 9e f3 c9 bd 1f 7e 46 3d 20 89 45 3e
       -0.039520875 -0.098609194 0.048460122 0.1929059
000300 6c c4 db bd 17 dc a1 3d c3 eb 3a bd 31 4b e9 bd
       -0.10730824 0.07903307 -0.045634996 -0.11391295
000310 c4 20 6d 3d 16 48 bb 3d 6a 3e df 3e 92 c5 17 3d
       0.057892576 0.09144609 0.43602306 0.037053652
000320 e9 f6 ca bd 84 90 a1 3e e5 5a 55 3d 27 bc 3b be
       -0.099103756 0.3155557 0.052088637 -0.18333493
000330 51 c2 05 be 3e cb 8a bd 35 40 9f bd d9 96 ce bc
       -0.13062407 -0.067770466 -0.077759184 -0.025218414
000340 75 f7 60 bd eb 72 44 3c 06 79 09 bc 65 a2 16 be
       -0.054923493 0.011990289 -0.008390671 -0.14710386
000350 94 b9 9e bd 03 03 cf bd ec 30 96 3d cf f0 ed 3d
       -0.0775024 -0.10107996 0.0733355 0.11618196
000360 b5 65 f1 3d 69 7b 9e 3d e1 4a 85 bd 56 8b 07 bd
       0.11786977 0.07738382 -0.06508423 -0.033091865
000370 e2 20 a7 bd 70 87 b0 3d 9d 7f 1b be 48 cd f0 bd
       -0.08160569 0.08619583 -0.151854 -0.11757904
000380 8c f9 7e be f8 aa d2 bd 94 65 aa bc 80 2f 7c bd
       -0.24899882 -0.10286516 -0.02080039 -0.061568737
000390 7c 98 e7 bc a3 92 9e bc d8 ff 1a be 2c 4f 9e bd
       -0.028270952 -0.019357031 -0.15136659 -0.077299446
0003a0 f5 77 28 be 5e 73 a8 bd 4d bd a4 3d 90 5e 56 be
       -0.1645201 -0.082251295 0.08043919 -0.2093451
0003b0 7c a9 8d bd d5 f2 ea bb 1d 47 cb bc ab d0 3e be
       -0.06917092 -0.007170061 -0.024814183 -0.18634288
0003c0 2b c2 01 3e 28 6f 9a bc 72 7a 48 bd 87 21 cc bc
       0.12671725 -0.018851832 -0.048944898 -0.02491833
0003d0 8e 8b 6a bd 15 5a 45 bd ae 17 d3 bd a7 35 43 bd
       -0.057261996 -0.048181612 -0.10307251 -0.04765859
0003e0 c4 a2 b8 3d 95 1d c4 bd cf 7b 69 3d 0d b4 ec bc
       0.0901542 -0.09575955 0.05700284 -0.028894449
0003f0 93 21 fd 3c 25 cc 10 be 60 26 07 be 35 07 74 3d
       0.030899798 -0.14140375 -0.13198233 0.059577186

sequential/dense_1/MatMul f4 [64, 128]
000000 fc 4d 5d 3e a7 71 88 3d 7d 85 55 3e 9d a8 66 bc
       0.2161178 0.066623025 0.20851703 -0.0140782865
000010 36 7d 5b 3d fa 80 64 be df 2f 9f 3c a5 af 3c bd
       0.053586207 -0.22314826 0.019432006 -0.046065945
000020 65 6a 19 3e 6b 21 47 3e 70 62 00 3e 31 b4 57 bd
       0.14981993 0.19446342 0.12537551 -0.05266208
000030 98 8e 82 bd 62 39 2f 3e 4e 2e 2e 3e 41 ed 80 3d
       -0.06374854 0.17111734 0.17009851 0.062952526
000040 23 f4 0d 3e e2 d8 4e 3c aa d9 64 3d 8e 18 d1 bd
       0.13862662 0.012624951 0.055871643 -0.102097616
000050 b3 ac 12 3e d0 1d 36 be d3 a1 89 3d fa ca d4 3e
       0.14323692 -0.1778481 0.06720319 0.4156111
000060 fc 74 e3 3d 0f 82 56 be 8e 04 a7 3e 0a ff a2 bd
       0.111062974 -0.20948051 0.32620662 -0.07958801
000070 19 b7 67 be b0 b2 a7 bc 1b 70 0e bd f4 4d 84 bd
       -0.2262844 -0.020470947 -0.03477488 -0.06460181
000080 00 84 1a 3e 6f 87 15 3f 22 3a 54 3d e1 86 49 3e
       0.15089417 0.5840978 0.051813252 0.19680358
000090 a4 5b 23 be cc 4a 16 bd f6 7b b8 3e 83 92 9b bd
       -0.15952927 -0.036692426 0.36032075 -0.07596304
0000a0 3f 5f 9a 3e b1 1d c3 3b 26 20 33 be 2b b8 4a 3c
       0.30150792 0.005954467 -0.17492732 0.012373011
0000b0 0a 80 98 bd 50 d3 f7 bd fd 2b f7 3e 8d ce 82 3e
       -0.074462965 -0.121008515 0.48275748 0.2554821
0000c0 b4 c4 77 be 1c 44 4e be 77 9a 74 be b2 24 ea bc
       -0.2419613 -0.20143169 -0.23887049 -0.02858195
0000d0 04 f1 b1 3e 06 24 1c 3e 8b 08 f6 3d 4d 1b 96 3e
       0.34754193 0.15248117 0.12013348 0.29317704
0000e0 72 60 1c be 45 d2 54 be d0 7e 29 3d 67 9e 28 3d
       -0.15271166 -0.20783336 0.041380703 0.04116669
0000f0 05 78 6c bd d1 14 8b 3d 20 5f e7 3d 9e 83 03 3c
       -0.057731647 0.0679108 0.112974405 0.008026985
000100 ee d0 34 3d 8c 25 84 be f5 86 ce bd b4 f8 07 3c
       0.044144563 -0.25809896 -0.10084335 0.008299042
000110 23 68 64 be 47 5c 68 bc 61 51 86 3d 3f a6 f1 3e
       -0.2230535 -0.014182157 0.065584905 0.47197148
000120 26 85 52 3d 7d cb 75 be 03 b3 30 3e b3 04 75 be
       0.05139651 -0.24003406 0.17255788 -0.23927574
000130 76 8a c5 3d 3b 2c 2c 3d 37 a7 ca bc 3e 88 32 3d
       0.0964555 0.04203437 -0.024737937 0.043586962
000140 ea 7a 62 be b7 ff 00 bd f4 50 20 bd e0 8f d3 bd
       -0.221172 -0.03149387 -0.039139703 -0.10330176
000150 92 e1 cc bd d3 46 63 3d a7 1e 0d be cb f6 09 bc
       -0.100039616 0.055487465 -0.13781224 -0.008420656
000160 f1 c2 07 be 10 e6 68 be a3 aa 51 3d 53 0f 92 3d
       -0.13257958 -0.22744012 0.051188122 0.07131829
000170 47 ac 33 be 70 3f af 3d f1 d0 c8 bb 40 df 4a 3e
       -0.17546187 0.085570216 -0.0061284234 0.19811726
000180 66 02 e2 bc 13 4d 01 be 22 66 4d 3e 6e 04 37 bd
       -0.027589034 -0.12627058 0.20058492 -0.04468196
000190 aa 8e 36 3d 1e 97 85 3d 66 66 dd bc 64 aa 15 3e
       0.04456965 0.06522964 -0.027026366 0.1461578
0001a0 61 ec d1 3d ee 6b 2f be fe 8b 69 3c a2 8d 05 be
       0.10250164 -0.17131016 0.014254568 -0.1304231
0001b0 af 88 6c 3d e4 db 4e be d5 43 5b 3e 9b 24 cd bc
       0.05774754 -0.20201069 0.21412595 -0.025041869
0001c0 f8 d3 e4 bc 9d 52 23 3d de 9e ad 3d 43 cc 8b 3e
       -0.027933106 0.039873708 0.08477567 0.27304277
0001d0 38 e6 45 be 49 e9 3e bd 48 11 01 3e 02 50 30 3e
       -0.19326103 -0.046609197 0.12604249 0.1721802
0001e0 42 40 17 3d 2c 94 01 3d c1 56 58 3e d9 52 2e 3e
       0.036926515 0.03163545 0.21126844 0.17023791
0001f0 d6 80 50 bc 17 0f 9d 3d c2 4c a7 3d ea 3a 19 3d
       -0.012726029 0.07668894 0.08168937 0.0374097
000200 56 81 41 bd 72 a4 67 3e a5 0c 8a 3e c7 0b be 3d
       -0.047242485 0.22621325 0.26962772 0.0927959
000210 4b a5 26 be 54 7c 28 3f 28 98 bd be 7b d8 6c 3d
       -0.16273992 0.6581471 -0.37030149 0.05782364
000220 82 44 3f 3d 04 d2 8b bd 8e 08 c0 3c 93 0a c6 3d
       0.046696194 -0.06827167 0.02344158 0.096699856
000230 39 f3 cc 3e 1c 06 80 be 7a ae bf 3d bc 3d a1 be
       0.40029314 -0.2500466 0.09359451 -0.31492412
000240 01 8e 61 bd e2 f9 05 be d5 24 24 3e 05 26 b0 bd
       -0.055067066 -0.13083604 0.16029675 -0.08601002
000250 9f e2 63 bd 1b 87 fd bc 62 ca 01 3e 99 79 f9 bd
       -0.055636045 -0.030948212 0.12674859 -0.12181396
000260 40 d1 b0 3e bc 3f 7c bc af fd 69 bd fb 70 b5 3d
       0.34534645 -0.015396055 -0.057126697 0.0885944
000270 79 96 0c bc 80 98 e4 3d 49 33 3d 3e 53 d7 e3 bc
       -0.008580797 0.111618996 0.18476595 -0.027812636
000280 54 59 aa 3d 88 f9 dd bd 1e 49 33 be 07 12 35 be
       0.08317819 -0.1083861 -0.1750836 -0.17682658
000290 41 c4 cb 3e ad 50 59 3c f2 a8 f7 bd 33 f3 c9 3c
       0.39798167 0.0132638635 -0.12092771 0.0246521
0002a0 2a 9d 01 be 79 a1 3f be 2b e4 38 3e 62 24 22 3d
       -0.1265761 -0.1871394 0.18055789 0.03958548
0002b0 76 87 2c 3e 4e 8d 8f be 85 c6 82 bb 32 c2 14 3e
       0.16848549 -0.28037494 -0.0039909505 0.14527205
0002c0 81 e9 ca be 03 e2 eb 3e 90 cf 9e bb f8 10 62 be
       -0.39631274 0.4607087 -0.0048465207 -0.22076786
0002d0 17 92 da bd db e1 33 bd 7f 8c c4 bd dc 75 ae 3d
       -0.10672396 -0.043916564 -0.0959711 0.08518574
0002e0 ca ba 33 bd 3e 43 03 3e d9 1d 0e 3d 12 93 11 3e
       -0.043879308 0.1281862 0.034696434 0.14216259
0002f0 51 ee ab 3d 6b 99 32 3e e6 7f a1 3d 61 e5 c3 3c
       0.083950646 0.17441337 0.07885723 0.023913087
000300 80 17 de be e5 80 b6 3c c5 18 10 3d 13 64 8d be
       -0.43377304 0.022278259 0.035179872 -0.27615413
000310 e7 fc c1 bd e5 ad b5 bc 8d 13 fb bd 59 f8 7f bd
       -0.094720654 -0.022177646 -0.122595884 -0.062492702
000320 7f e6 a6 bd 6a e5 7a 3d 11 f9 1f 3e 07 c1 f9 bd
       -0.081494324 0.061253943 0.15622355 -0.1219502
000330 92 da 76 be 05 26 dd 3d 36 ab 8f bd ad ee a3 3c
       -0.24106815 0.10798267 -0.07015078 0.02001127
000340 0c f0 af 3d a6 a7 d1 3d 11 db 95 3a f7 35 ad bd
       0.08590707 0.102370545 0.0011433085 -0.084575586
000350 6d 7a a7 bc 48 db 91 bd bb 66 2f 3d 6b 28 f9 bd
       -0.02044412 -0.07121903 0.04282258 -0.12165912
000360 25 22 86 be 51 48 75 3d 57 a3 1b be cb bf 8a be
       -0.26197925 0.05988342 -0.15199028 -0.2709945
000370 84 3e 00 be 7e d6 69 be ec fe de be 72 91 24 3f
       -0.12523848 -0.22835729 -0.43553865 0.6428443
000380 e9 22 3a bc 09 2a 94 bb 93 8e 8b bc 04 b8 d7 3e
       -0.011360862 -0.0045216125 -0.017035758 0.4213258
000390 25 cc 85 3d 98 e3 6b be f2 00 b7 bd 4c d5 54 be
       0.06533078 -0.23036039 -0.08935727 -0.20784491
0003a0 1b b3 d1 3c 25 0f a4 bd 85 55 e2 bd ad 1a 77 be
       0.0255981 -0.08010701 -0.11051468 -0.2413127
0003b0 f5 28 35 be ce 13 d4 3d 45 13 90 3e fd 88 88 bd
       -0.17691405 0.1035534 0.281397 -0.066667534
0003c0 71 b6 ab 3d a6 2d d1 bd d4 15 f7 bc f5 38 5d bd
       0.08384407 -0.10213785 -0.030161776 -0.054009397
0003d0 29 bd 1b be a3 19 6d 3e 65 12 1a 3e 69 bc 6a 3d
       -0.15208878 0.23154311 0.1504608 0.05730859
0003e0 08 90 a8 3e 5e 9d 0a be 53 24 3c 3c 22 2e 89 bd
       0.32922387 -0.13536593 0.01148327 -0.06698252
0003f0 11 3a c0 3e e7 ae c2 3e b0 f4 ad bd 21 e4 87 be
       0.375443 0.38024065 -0.08493936 -0.26541236

sequential/dense_2/MatMul f4 [29, 64]
000000 3b 9a 98 be 46 e4 6e be f8 77 09 3f 7b b9 f5 be
       -0.29805169 -0.23329267 0.5369868 -0.47993073
000010 e3 ff 11 3f 6c bd f0 bc b6 c2 ef 3e 29 64 37 be
       0.5703108 -0.029387198 0.4682824 -0.17909302
000020 2b 21 cb 3e 7d a4 bf be 8e 06 ee be 74 38 ad be
       0.39673743 -0.37430182 -0.46489376 -0.33832133
000030 e7 5e 06 3f 09 98 e3 3e f4 e1 06 3f 58 02 ff 3e
       0.5248856 0.4445193 0.5268853 0.49806476
000040 ce 48 c7 be 39 54 c9 3d b1 48 8d 3d e2 07 d7 3e
       -0.38922733 0.09830517 0.068986304 0.41998202
000050 e8 e4 d8 be 6d a6 00 3f 18 d1 08 3f 61 7d e4 3e
       -0.42362142 0.50253946 0.5344405 0.44626907
000060 19 f6 ba bd 7a 95 f8 3e 42 19 0a 3f aa 5b 16 bf
       -0.09128971 0.48551542 0.5394479 -0.5873362
000070 24 02 f1 be ff 47 19 bf df 2f 0b 3f 13 a0 66 3d
       -0.47071946 -0.5987548 0.5436992 0.056305002
000080 73 19 e1 be 17 6e 44 39 a0 e1 df be 1e e8 b3 3e
       -0.4396473 0.00018733028 -0.43726826 0.3513803
000090 2f 51 fc 3c 1e 57 14 3e 6a e3 06 bf 23 ed 64 3e
       0.03080043 0.14486358 -0.52690756 0.22356085
0000a0 82 49 c9 3e d1 3d 0c bf ba 4b 90 be d5 dd 6f be
       0.39313895 -0.54781824 -0.28182775 -0.23424466
0000b0 6a a7 1c 3e b3 90 13 3e ec 5e 33 3e 01 e2 82 be
       0.15298238 0.14410667 0.17516679 -0.25563052
0000c0 8a 4e 1e bf e7 fe 52 be d9 6a 56 3e ff ff 1e be
       -0.6183859 -0.2060505 0.20939197 -0.15527342
0000d0 1f 39 d7 3e 6c 47 bf be 01 64 f7 be 5b c4 e7 3e
       0.42035767 -0.37359178 -0.48318484 0.45266995
0000e0 16 0c 09 bf 88 20 9f 3d 51 80 0a bf 5c 2b 0b bd
       -0.53534067 0.07769877 -0.54102045 -0.033976898
0000f0 33 38 c4 3e dd 3b e8 be 52 8a 32 bc 84 0c ed 3e
       0.38324127 -0.45358172 -0.010897236 0.4629861
000100 f9 ac 6f 3d f5 04 19 be 96 0c 08 3f 9e 3a a6 3e
       0.05851457 -0.14943297 0.53144205 0.32466596
000110 4b 80 6d be cd 4c d2 be 55 1d cf 3e a5 f6 d6 3e
       -0.23193471 -0.4107422 0.40452066 0.4198505
000120 1f 57 a7 3e 35 de 22 3e 67 c3 ff 3e 5c d8 63 be
       0.32683656 0.15905078 0.49953768 -0.22250503
000130 21 f0 9d be 65 aa ed be 38 d9 59 be 98 39 77 be
       -0.30847266 -0.46419063 -0.21274269 -0.24143064
000140 9b e5 b6 3e 39 f1 0d bf ae fb 98 be fc 0b df be
       0.3572205 -0.554462 -0.29879516 -0.4356383
000150 93 d4 a0 3d 5c ee b1 be 77 3d 86 be 87 bc 04 bc
       0.07853045 -0.34752166 -0.2621877 -0.008101589
000160 3d a0 44 be a9 4a 1c bd 68 2f 09 bf 3e ca d9 3e
       -0.19201751 -0.03815714 -0.5358796 0.4253711
000170 95 26 38 3e 8d cd 3e be 7a a2 a0 be 23 ae 3d bf
       0.17983468 -0.18633099 -0.3137396 -0.74093837
000180 da 64 17 3d 0b 78 14 bf bc f8 11 3f bc f4 86 3e
       0.036961414 -0.5799567 0.57020164 0.26358593
000190 63 35 26 bf 2f 62 b4 3e e5 5c 0a 3f ce a7 98 b9
       -0.6492521 0.35231158 0.54047996 -0.00029116723
0001a0 9e 6c 3c be bf ce f3 3e 51 35 d5 be 91 e9 1a bf
       -0.18400809 0.47618672 -0.4164224 -0.60512644
0001b0 bb 3b c7 3e ba 71 cd 3e 44 f0 c7 be a2 29 0e 3e
       0.38912758 0.4012583 -0.39050496 0.13883069
0001c0 7d 7f c7 3e 8f b0 04 3f c0 7f 85 3e b8 3f e8 be
       0.38964453 0.5183191 0.26074028 -0.45361114
0001d0 58 12 01 3d 84 93 ff be 56 88 ee 3e 46 d1 97 3e
       0.031511635 -0.49917233 0.4658839 0.2965185
0001e0 dc df 1d bf 94 a0 92 be 7a 1b e5 3e c4 ac aa be
       -0.6166971 -0.28638136 0.44747525 -0.33334935
0001f0 f8 68 14 bf 20 fd d8 3e 63 57 ca 3e f0 38 ce 3e
       -0.5797267 0.4238062 0.39519796 0.40277815
000200 4f fe 0e bf 2d a9 1b 3f 35 0a de 3e 54 11 21 bf
       -0.55856794 0.60805017 0.43367162 -0.62917066
000210 d6 8c 1a 3f 0a 65 2f bf f3 ea 6c 3e 4c 3e fe 3e
       0.6037115 -0.6851355 0.23136501 0.49656904
000220 65 45 e8 be 92 b9 c1 be 3e 19 d8 be 2c 69 93 be
       -0.45365444 -0.3783689 -0.42206758 -0.28791177
000230 ca 25 f3 3e 15 11 c8 3e 68 b0 a3 3e 40 67 0e 3f
       0.47489768 0.39075533 0.31970525 0.55626297
000240 cd 95 f3 be a0 22 41 bf 63 b7 ad 3c 9e 76 9e 3e
       -0.47575226 -0.7544346 0.02120561 0.30949873
000250 d9 4f d6 3e 14 4f b0 be 96 92 e8 3e a2 d8 4f bf
       0.41857794 -0.34435332 0.45424336 -0.8118993
000260 cb b6 cf be e2 4c ab be 87 ff 27 bf 5c 4c f9 3e
       -0.40569147 -0.33457094 -0.6562428 0.4869107
000270 f4 20 1c bd 83 1a ec 3e 01 83 34 3e d2 f9 6b 3e
       -0.038117364 0.46113977 0.17628099 0.23044518
000280 fd 58 1f 3f 8c db 3e bd 2d ce 32 3f f1 90 9e be
       0.6224516 -0.046596095 0.6984585 -0.30969957
000290 5f ff 00 bf 9b 3b 0f 3f 5d b7 48 3e 7c 16 ef 3d
       -0.50389665 0.55950326 0.19601198 0.116742104
0002a0 09 aa 66 be d7 48 5c be de 7e 29 bf 36 bf 33 bf
       -0.22525801 -0.21512161 -0.6620921 -0.7021364
0002b0 60 49 26 bf 3b 42 e3 3e 8e e8 18 bf 47 d0 28 bf
       -0.6495571 0.44386467 -0.5972985 -0.65942806
0002c0 e9 7e 01 bf 8e 38 d7 3e 1e 2d 11 bf 50 55 1c bf
       -0.50584275 0.42035335 -0.5670947 -0.61067677
0002d0 e1 0a 2b be c0 b9 3c bf 8e ba 0c 3f 5b 75 28 bf
       -0.16703369 -0.7372093 0.5497216 -0.6580407
0002e0 e1 84 be be a0 2a 78 be 78 17 67 be 42 77 0d be
       -0.37210754 -0.2423501 -0.22567546 -0.13815024
0002f0 0a 52 37 bf df da cf 3e aa 40 ee 3e a7 80 d2 3e
       -0.71609557 0.40596673 0.4653371 0.4111378
000300 47 c7 1d 3f d5 fc a6 be f6 d6 d7 3e d7 cc d5 3e
       0.616322 -0.3261477 0.4215619 0.41757843
000310 08 4a 06 bd e6 5e dd 3c 9c 29 90 be f9 7e 3a be
       -0.032785445 0.02702279 -0.28156745 -0.18212499
000320 16 7c bf 3e 6f 6e 99 3e 71 14 2c 3d a6 44 87 be
       0.37399358 0.29967067 0.042011682 -0.26419562
000330 9b 80 4c be 09 29 bd be 54 50 f7 be 09 19 02 3f
       -0.19970934 -0.3694537 -0.48303473 0.5081945
000340 82 a5 05 3f 33 72 23 3e 7a 3a a3 bd 07 e7 d4 be
       0.5220567 0.15961532 -0.07970138 -0.4158251
000350 a8 53 31 3d 0b e9 22 be d6 f7 21 bd 77 61 fa 3e
       0.04329267 -0.15909211 -0.039542995 0.48902485
000360 08 eb 82 be ac 27 fd bd 55 85 37 be 5a 9e 5f be
       -0.2556994 -0.123610824 -0.17921956 -0.2183775
000370 e5 52 03 bd b8 42 88 be 05 0b 0e be 39 1d 62 be
       -0.032061476 -0.26613402 -0.13871391 -0.2208146
000380 23 5a 11 bd c5 67 ab be 0e e2 9e bd d8 b6 b2 3e
       -0.03548635 -0.33477607 -0.0775796 0.34905124
000390 23 7f 97 3d 13 68 e4 be 1a 0b b3 be d5 88 28 be
       0.07397296 -0.44610652 -0.34969407 -0.16458447
0003a0 ed 73 82 be 81 10 1e be 3e 57 f2 3e d8 e6 2c be
       -0.2547907 -0.15435983 0.47332186 -0.16884935
0003b0 c5 96 9d 3e be ef 8f be a7 cb e6 bd da 94 9a be
       0.3077909 -0.28112596 -0.11269312 -0.3019169
0003c0 8f fa da 3e b1 b2 e2 be e4 de 95 3e 1c 9e 9d 3e
       0.42769286 -0.44276956 0.29271615 0.3078469
0003d0 be 00 d5 3e a9 47 d6 3e 0d 00 3c be 62 85 ec 3e
       0.4160213 0.41851547 -0.18359394 0.46195513
0003e0 e6 38 88 3e f6 ae ed bd 8e 24 0b 3f ae 66 c4 3d
       0.2660591 -0.11605637 0.54352653 0.09589897
0003f0 6a 7b ae be b4 1e e8 3e ef 95 b0 be 95 47 b5 be
       -0.34078532 0.45335925 -0.3448939 -0.35406175
